_________________________________________________________________
Layer (type)                 Output Shape              Param #   
=================================================================
conv2d_1 (Conv2D)            (None, 128, 128, 32)      832       
_________________________________________________________________
max_pooling2d_1 (MaxPooling2 (None, 64, 64, 32)        0         
_________________________________________________________________
conv2d_2 (Conv2D)            (None, 64, 64, 64)        51264     
_________________________________________________________________
max_pooling2d_2 (MaxPooling2 (None, 32, 32, 64)        0         
_________________________________________________________________
flatten_1 (Flatten)          (None, 65536)             0         
_________________________________________________________________
dense_1 (Dense)              (None, 1000)              65537000  
_________________________________________________________________
dense_2 (Dense)              (None, 1)                 1001      
=================================================================
Total params: 65,590,097
Trainable params: 65,590,097
Non-trainable params: 0
_________________________________________________________________
None
Epoch 1/1000

1/1 [==============================] - 6s 6s/step - loss: 37.5960
Epoch 2/1000

1/1 [==============================] - 5s 5s/step - loss: 42.0942
Epoch 3/1000

1/1 [==============================] - 6s 6s/step - loss: 35.4375
…
